Namespace(adadelta=False, adam=False, alphabet='0123456789abcdefghijklmnopqrstuvwxyz', batchSize=64, beta1=0.5, crnn='', cuda=True, displayInterval=1, experiment='expr2', imgH=32, imgW=100, keep_ratio=False, lr=0.0001, n_test_disp=10, ngpu=1, nh=256, niter=10, random_sample=False, saveInterval=10000, trainroot='data/lmdb/train', valInterval=100, valroot='data/lmdb/val', workers=10)
Random Seed:  4601
CRNN (
  (cnn): Sequential (
    (conv0): Conv2d(1, 64, kernel_size=(3, 3), stride=(1, 1), padding=(1, 1))
    (relu0): ReLU (inplace)
    (pooling0): MaxPool2d (size=(2, 2), stride=(2, 2), dilation=(1, 1))
    (conv1): Conv2d(64, 128, kernel_size=(3, 3), stride=(1, 1), padding=(1, 1))
    (relu1): ReLU (inplace)
    (pooling1): MaxPool2d (size=(2, 2), stride=(2, 2), dilation=(1, 1))
    (conv2): Conv2d(128, 256, kernel_size=(3, 3), stride=(1, 1), padding=(1, 1))
    (batchnorm2): BatchNorm2d(256, eps=1e-05, momentum=0.1, affine=True)
    (relu2): ReLU (inplace)
    (conv3): Conv2d(256, 256, kernel_size=(3, 3), stride=(1, 1), padding=(1, 1))
    (relu3): ReLU (inplace)
    (pooling2): MaxPool2d (size=(2, 2), stride=(2, 1), dilation=(1, 1))
    (conv4): Conv2d(256, 512, kernel_size=(3, 3), stride=(1, 1), padding=(1, 1))
    (batchnorm4): BatchNorm2d(512, eps=1e-05, momentum=0.1, affine=True)
    (relu4): ReLU (inplace)
    (conv5): Conv2d(512, 512, kernel_size=(3, 3), stride=(1, 1), padding=(1, 1))
    (relu5): ReLU (inplace)
    (pooling3): MaxPool2d (size=(2, 2), stride=(2, 1), dilation=(1, 1))
    (conv6): Conv2d(512, 512, kernel_size=(2, 2), stride=(1, 1))
    (batchnorm6): BatchNorm2d(512, eps=1e-05, momentum=0.1, affine=True)
    (relu6): ReLU (inplace)
  )
  (rnn): Sequential (
    (0): BidirectionalLSTM (
      (rnn): LSTM(512, 256, bidirectional=True)
      (embedding): Linear (512 -> 256)
    )
    (1): BidirectionalLSTM (
      (rnn): LSTM(256, 256, bidirectional=True)
      (embedding): Linear (512 -> 97)
    )
  )
)
[0/10][1/131] Loss: 75.622307
[0/10][2/131] Loss: 40.010162
…
