…
'', cuda=True, displayInterval=120, experiment='experiments/expr_READ_10Apr_binarize', imgH=60, imgW=240, keep_ratio=True, lr=0.0001, n_test_disp=10, ngpu=1, nh=256, niter=200, random_sample=False, saveEpoch=5, test_file='test_file', test_icfhr=False, trainroot='/deep_data/nephi/data/lmdb_read_bin/train', valEpoch=5, valroot='/deep_data/nephi/data/lmdb_read_bin/val', workers=10)
Random Seed:  5547
This is the alphabet:
40FreihatnūfsRb¬:vdgüomw.DlENBcLkPzAOuVȳGSCIH19Tj62,W5KōZpäÿMJ38x()āÖqß̄—öU7̈ē-Q<>/¾yY+ 
Your neural network: DataParallel(
  (module): CRNN(
    (cnn): Sequential(
      (conv0): Conv2d(3, 64, kernel_size=(3, 3), stride=(1, 1), padding=(1, 1))
      (relu0): ReLU(inplace)
      (pooling0): MaxPool2d(kernel_size=(2, 2), stride=(2, 2), dilation=(1, 1), ceil_mode=False)
      (conv1): Conv2d(64, 128, kernel_size=(3, 3), stride=(1, 1), padding=(1, 1))
      (relu1): ReLU(inplace)
      (pooling1): MaxPool2d(kernel_size=(2, 2), stride=(2, 2), dilation=(1, 1), ceil_mode=False)
      (conv2): Conv2d(128, 256, kernel_size=(3, 3), stride=(1, 1), padding=(1, 1))
      (batchnorm2): BatchNorm2d(256, eps=1e-05, momentum=0.1, affine=True)
      (relu2): ReLU(inplace)
      (conv3): Conv2d(256, 256, kernel_size=(3, 3), stride=(1, 1), padding=(1, 1))
      (relu3): ReLU(inplace)
      (pooling2): MaxPool2d(kernel_size=(2, 2), stride=(2, 1), padding=(0, 1), dilation=(1, 1), ceil_mode=False)
      (conv4): Conv2d(256, 512, kernel_size=(3, 3), stride=(1, 1), padding=(1, 1))
      (batchnorm4): BatchNorm2d(512, eps=1e-05, momentum=0.1, affine=True)
      (relu4): ReLU(inplace)
      (conv5): Conv2d(512, 512, kernel_size=(3, 3), stride=(1, 1), padding=(1, 1))
      (relu5): ReLU(inplace)
      (pooling3): MaxPool2d(kernel_size=(2, 2), stride=(2, 1), padding=(0, 1), dilation=(1, 1), ceil_mode=False)
      (conv6): Conv2d(512, 512, kernel_size=(2, 2), stride=(1, 1))
      (batchnorm6): BatchNorm2d(512, eps=1e-05, momentum=0.1, affine=True)
      (relu6): ReLU(inplace)
    )
    (rnn): Sequential(
      (0): BidirectionalLSTM(
        (rnn): LSTM(512, 256, bidirectional=True)
        (embedding): Linear(in_features=512, out_features=256, bias=True)
      )
      (1): BidirectionalLSTM(
        (rnn): LSTM(256, 256, bidirectional=True)
        (embedding): Linear(in_features=512, out_features=89, bias=True)
      )
    )
  )
)
Starting training...
[0/200][120/4184] Loss: 90.737152
[0/200][240/4184] Loss: 72.964146
[0/200][360/4184] Loss: 75.532799
[0/200][480/4184] Loss: 73.500466
[0/200][600/4184] Loss: 69.930226
[0/200][720/4184] Loss: 72.094525
[0/200][840/4184] Loss: 63.818462
[0/200][960/4184] Loss: 61.847489
[0/200][1080/4184] Loss: 57.598921
[0/200][1200/4184] Loss: 54.283086
…
Running with options: Namespace(adadelta=False, adam=False, alphabet='0123456789abcdefghijklmnopqrstuvwxyz', batchSize=2, beta1=0.5, binarize=False, crnn='', cuda=True, displayInterval=120, experiment='experiments/expr_READ_14Apr_prepareforgit', imgH=60, imgW=240, keep_ratio=True, lr=0.0001, n_test_disp=10, ngpu=1, nh=256, niter=200, random_sample=False, saveEpoch=5, test_file='test_file', test_icfhr=False, trainroot='/deep_data/nephi/data/lmdb_read_bin/train', valEpoch=5, valroot='/deep_data/nephi/data/lmdb_read_bin/val', workers=10)
Random Seed:  1157
This is the alphabet:
40FreihatnūfsRb¬:vdgüomw.DlENBcLkPzAOuVȳGSCIH19Tj62,W5KōZpäÿMJ38x()āÖqß̄—öU7̈ē-Q<>/¾yY+ 
Your neural network: DataParallel(
  (module): CRNN(
    (cnn): Sequential(
      (conv0): Conv2d(1, 64, kernel_size=(3, 3), stride=(1, 1), padding=(1, 1))
      (relu0): ReLU(inplace)
      (pooling0): MaxPool2d(kernel_size=(2, 2), stride=(2, 2), dilation=(1, 1), ceil_mode=False)
      (conv1): Conv2d(64, 128, kernel_size=(3, 3), stride=(1, 1), padding=(1, 1))
      (relu1): ReLU(inplace)
      (pooling1): MaxPool2d(kernel_size=(2, 2), stride=(2, 2), dilation=(1, 1), ceil_mode=False)
      (conv2): Conv2d(128, 256, kernel_size=(3, 3), stride=(1, 1), padding=(1, 1))
      (batchnorm2): BatchNorm2d(256, eps=1e-05, momentum=0.1, affine=True)
      (relu2): ReLU(inplace)
      (conv3): Conv2d(256, 256, kernel_size=(3, 3), stride=(1, 1), padding=(1, 1))
      (relu3): ReLU(inplace)
      (pooling2): MaxPool2d(kernel_size=(2, 2), stride=(2, 1), padding=(0, 1), dilation=(1, 1), ceil_mode=False)
      (conv4): Conv2d(256, 512, kernel_size=(3, 3), stride=(1, 1), padding=(1, 1))
      (batchnorm4): BatchNorm2d(512, eps=1e-05, momentum=0.1, affine=True)
      (relu4): ReLU(inplace)
      (conv5): Conv2d(512, 512, kernel_size=(3, 3), stride=(1, 1), padding=(1, 1))
      (relu5): ReLU(inplace)
      (pooling3): MaxPool2d(kernel_size=(2, 2), stride=(2, 1), padding=(0, 1), dilation=(1, 1), ceil_mode=False)
      (conv6): Conv2d(512, 512, kernel_size=(2, 2), stride=(1, 1))
      (batchnorm6): BatchNorm2d(512, eps=1e-05, momentum=0.1, affine=True)
      (relu6): ReLU(inplace)
    )
    (rnn): Sequential(
      (0): BidirectionalLSTM(
        (rnn): LSTM(512, 256, bidirectional=True)
        (embedding): Linear(in_features=512, out_features=256, bias=True)
      )
      (1): BidirectionalLSTM(
        (rnn): LSTM(256, 256, bidirectional=True)
        (embedding): Linear(in_features=512, out_features=89, bias=True)
      )
    )
  )
)
Starting training...
Running with options: Namespace(adadelta=False, adam=False, alphabet='0123456789abcdefghijklmnopqrstuvwxyz', batchSize=2, beta1=0.5, binarize=False, crnn='', cuda=True, displayInterval=120, experiment='experiments/expr_READ_14Apr_prepareforgit', imgH=60, imgW=240, keep_ratio=True, lr=0.0001, n_test_disp=10, ngpu=1, nh=256, niter=200, random_sample=False, saveEpoch=5, test_file='test_file', test_icfhr=False, trainroot='/deep_data/nephi/data/lmdb_read_bin/train', valEpoch=5, valroot='/deep_data/nephi/data/lmdb_read_bin/val', workers=10)
Random Seed:  6054
This is the alphabet:
40FreihatnūfsRb¬:vdgüomw.DlENBcLkPzAOuVȳGSCIH19Tj62,W5KōZpäÿMJ38x()āÖqß̄—öU7̈ē-Q<>/¾yY+ 
Your neural network: DataParallel(
  (module): CRNN(
    (cnn): Sequential(
      (conv0): Conv2d(1, 64, kernel_size=(3, 3), stride=(1, 1), padding=(1, 1))
      (relu0): ReLU(inplace)
      (pooling0): MaxPool2d(kernel_size=(2, 2), stride=(2, 2), dilation=(1, 1), ceil_mode=False)
      (conv1): Conv2d(64, 128, kernel_size=(3, 3), stride=(1, 1), padding=(1, 1))
      (relu1): ReLU(inplace)
      (pooling1): MaxPool2d(kernel_size=(2, 2), stride=(2, 2), dilation=(1, 1), ceil_mode=False)
      (conv2): Conv2d(128, 256, kernel_size=(3, 3), stride=(1, 1), padding=(1, 1))
      (batchnorm2): BatchNorm2d(256, eps=1e-05, momentum=0.1, affine=True)
      (relu2): ReLU(inplace)
      (conv3): Conv2d(256, 256, kernel_size=(3, 3), stride=(1, 1), padding=(1, 1))
      (relu3): ReLU(inplace)
      (pooling2): MaxPool2d(kernel_size=(2, 2), stride=(2, 1), padding=(0, 1), dilation=(1, 1), ceil_mode=False)
      (conv4): Conv2d(256, 512, kernel_size=(3, 3), stride=(1, 1), padding=(1, 1))
      (batchnorm4): BatchNorm2d(512, eps=1e-05, momentum=0.1, affine=True)
      (relu4): ReLU(inplace)
      (conv5): Conv2d(512, 512, kernel_size=(3, 3), stride=(1, 1), padding=(1, 1))
      (relu5): ReLU(inplace)
      (pooling3): MaxPool2d(kernel_size=(2, 2), stride=(2, 1), padding=(0, 1), dilation=(1, 1), ceil_mode=False)
      (conv6): Conv2d(512, 512, kernel_size=(2, 2), stride=(1, 1))
      (batchnorm6): BatchNorm2d(512, eps=1e-05, momentum=0.1, affine=True)
      (relu6): ReLU(inplace)
    )
    (rnn): Sequential(
      (0): BidirectionalLSTM(
        (rnn): LSTM(512, 256, bidirectional=True)
        (embedding): Linear(in_features=512, out_features=256, bias=True)
      )
      (1): BidirectionalLSTM(
        (rnn): LSTM(256, 256, bidirectional=True)
        (embedding): Linear(in_features=512, out_features=89, bias=True)
      )
    )
  )
)
Starting training...
Running with options: Namespace(adadelta=False, adam=False, alphabet='0123456789abcdefghijklmnopqrstuvwxyz', batchSize=2, beta1=0.5, binarize=False, crnn='', cuda=True, displayInterval=120, experiment='experiments/expr_READ_14Apr_prepareforgit', imgH=60, imgW=240, keep_ratio=True, lr=0.0001, n_test_disp=10, ngpu=1, nh=256, niter=200, random_sample=False, saveEpoch=5, test_file='test_file', test_icfhr=False, trainroot='/deep_data/nephi/data/lmdb_read_bin/train', valEpoch=5, valroot='/deep_data/nephi/data/lmdb_read_bin/val', workers=10)
Random Seed:  6115
This is the alphabet:
40FreihatnūfsRb¬:vdgüomw.DlENBcLkPzAOuVȳGSCIH19Tj62,W5KōZpäÿMJ38x()āÖqß̄—öU7̈ē-Q<>/¾yY+ 
Your neural network: DataParallel(
  (module): CRNN(
    (cnn): Sequential(
      (conv0): Conv2d(1, 64, kernel_size=(3, 3), stride=(1, 1), padding=(1, 1))
      (relu0): ReLU(inplace)
      (pooling0): MaxPool2d(kernel_size=(2, 2), stride=(2, 2), dilation=(1, 1), ceil_mode=False)
      (conv1): Conv2d(64, 128, kernel_size=(3, 3), stride=(1, 1), padding=(1, 1))
      (relu1): ReLU(inplace)
      (pooling1): MaxPool2d(kernel_size=(2, 2), stride=(2, 2), dilation=(1, 1), ceil_mode=False)
      (conv2): Conv2d(128, 256, kernel_size=(3, 3), stride=(1, 1), padding=(1, 1))
      (batchnorm2): BatchNorm2d(256, eps=1e-05, momentum=0.1, affine=True)
      (relu2): ReLU(inplace)
      (conv3): Conv2d(256, 256, kernel_size=(3, 3), stride=(1, 1), padding=(1, 1))
      (relu3): ReLU(inplace)
      (pooling2): MaxPool2d(kernel_size=(2, 2), stride=(2, 1), padding=(0, 1), dilation=(1, 1), ceil_mode=False)
      (conv4): Conv2d(256, 512, kernel_size=(3, 3), stride=(1, 1), padding=(1, 1))
      (batchnorm4): BatchNorm2d(512, eps=1e-05, momentum=0.1, affine=True)
      (relu4): ReLU(inplace)
      (conv5): Conv2d(512, 512, kernel_size=(3, 3), stride=(1, 1), padding=(1, 1))
      (relu5): ReLU(inplace)
      (pooling3): MaxPool2d(kernel_size=(2, 2), stride=(2, 1), padding=(0, 1), dilation=(1, 1), ceil_mode=False)
      (conv6): Conv2d(512, 512, kernel_size=(2, 2), stride=(1, 1))
      (batchnorm6): BatchNorm2d(512, eps=1e-05, momentum=0.1, affine=True)
      (relu6): ReLU(inplace)
    )
    (rnn): Sequential(
      (0): BidirectionalLSTM(
        (rnn): LSTM(512, 256, bidirectional=True)
        (embedding): Linear(in_features=512, out_features=256, bias=True)
      )
      (1): BidirectionalLSTM(
        (rnn): LSTM(256, 256, bidirectional=True)
        (embedding): Linear(in_features=512, out_features=89, bias=True)
      )
    )
  )
)
Starting training...
The image has shape:
(109, 875)
The image has shape:
(101, 840)
The image has shape:
(103, 1103)
The image has shape:
(109, 1171)
The image has shape:
(146, 602)
The image has shape:
(145, 638)
The image has shape:
(107, 937)
The image has shape:
(83, 925)
The image has shape:
(115, 445)
The image has shape:
(223, 1152)
…
