…
test_disp=10, ngpu=1, nh=256, niter=200, random_sample=False, saveEpoch=5, test_file='test_file', test_icfhr=False, trainroot='/deep_data/nephi/data/lmdb_ICFHR/general_data', valEpoch=5, valroot='/deep_data/nephi/data/lmdb_ICFHR/specific_data', workers=10)
Random Seed:  3747
This is the alphabet:
eniratsdholcugmv.wbf,zkpySDA-MEjGBIHVßCWP1N¬TJFKRO"ʒLæx2:’q08ZU;–3'4·ø7!5?6)9(—/=┌YQ&X«»[│]§°ειν”τ|ασ 
loading pretrained model from /deep_data/nephi/experiments/expr_ICFHR_27Mar_alph_werr_fixed/netCRNN_0_5963.pth
Your neural network: DataParallel(
  (module): CRNN(
    (cnn): Sequential(
      (conv0): Conv2d(1, 64, kernel_size=(3, 3), stride=(1, 1), padding=(1, 1))
      (relu0): ReLU(inplace)
      (pooling0): MaxPool2d(kernel_size=(2, 2), stride=(2, 2), dilation=(1, 1), ceil_mode=False)
      (conv1): Conv2d(64, 128, kernel_size=(3, 3), stride=(1, 1), padding=(1, 1))
      (relu1): ReLU(inplace)
      (pooling1): MaxPool2d(kernel_size=(2, 2), stride=(2, 2), dilation=(1, 1), ceil_mode=False)
      (conv2): Conv2d(128, 256, kernel_size=(3, 3), stride=(1, 1), padding=(1, 1))
      (batchnorm2): BatchNorm2d(256, eps=1e-05, momentum=0.1, affine=True)
      (relu2): ReLU(inplace)
      (conv3): Conv2d(256, 256, kernel_size=(3, 3), stride=(1, 1), padding=(1, 1))
      (relu3): ReLU(inplace)
      (pooling2): MaxPool2d(kernel_size=(2, 2), stride=(2, 1), padding=(0, 1), dilation=(1, 1), ceil_mode=False)
      (conv4): Conv2d(256, 512, kernel_size=(3, 3), stride=(1, 1), padding=(1, 1))
      (batchnorm4): BatchNorm2d(512, eps=1e-05, momentum=0.1, affine=True)
      (relu4): ReLU(inplace)
      (conv5): Conv2d(512, 512, kernel_size=(3, 3), stride=(1, 1), padding=(1, 1))
      (relu5): ReLU(inplace)
      (pooling3): MaxPool2d(kernel_size=(2, 2), stride=(2, 1), padding=(0, 1), dilation=(1, 1), ceil_mode=False)
      (conv6): Conv2d(512, 512, kernel_size=(2, 2), stride=(1, 1))
      (batchnorm6): BatchNorm2d(512, eps=1e-05, momentum=0.1, affine=True)
      (relu6): ReLU(inplace)
    )
    (rnn): Sequential(
      (0): BidirectionalLSTM(
        (rnn): LSTM(512, 256, bidirectional=True)
        (embedding): Linear(in_features=512, out_features=256, bias=True)
      )
      (1): BidirectionalLSTM(
        (rnn): LSTM(256, 256, bidirectional=True)
        (embedding): Linear(in_features=512, out_features=103, bias=True)
      )
    )
  )
)
Starting training...
[0/200][120/5963] Loss: 58.463978
[0/200][240/5963] Loss: 54.012676
[0/200][360/5963] Loss: 49.557260
[0/200][480/5963] Loss: 48.205032
[0/200][600/5963] Loss: 50.558604
[0/200][720/5963] Loss: 54.526722
[0/200][840/5963] Loss: 49.516797
[0/200][960/5963] Loss: 46.666422
[0/200][1080/5963] Loss: 50.114162
[0/200][1200/5963] Loss: 44.442392
…
