Running with options: Namespace(adadelta=False, adam=False, alphabet='0123456789abcdefghijklmnopqrstuvwxyz', batchSize=4, beta1=0.5, crnn='', cuda=True, displayInterval=10, experiment='expr_test_true_64h', imgH=64, imgW=220, keep_ratio=True, lr=0.0001, n_test_disp=10, ngpu=1, nh=256, niter=100, random_sample=False, saveEpoch=10, trainroot='data/lmdb/val', valEpoch=2, valroot='data/lmdb/val', workers=2)
Random Seed:  9983
Your neural network: DataParallel(
  (module): CRNN(
    (cnn): Sequential(
      (conv0): Conv2d(1, 64, kernel_size=(3, 3), stride=(1, 1), padding=(1, 1))
      (relu0): ReLU(inplace)
      (pooling0): MaxPool2d(kernel_size=(2, 2), stride=(2, 2), dilation=(1, 1), ceil_mode=False)
      (conv1): Conv2d(64, 128, kernel_size=(3, 3), stride=(1, 1), padding=(1, 1))
      (relu1): ReLU(inplace)
      (pooling1): MaxPool2d(kernel_size=(2, 2), stride=(2, 2), dilation=(1, 1), ceil_mode=False)
      (conv2): Conv2d(128, 256, kernel_size=(3, 3), stride=(1, 1), padding=(1, 1))
      (batchnorm2): BatchNorm2d(256, eps=1e-05, momentum=0.1, affine=True)
      (relu2): ReLU(inplace)
      (conv3): Conv2d(256, 256, kernel_size=(3, 3), stride=(1, 1), padding=(1, 1))
      (relu3): ReLU(inplace)
      (pooling2): MaxPool2d(kernel_size=(2, 2), stride=(2, 1), padding=(0, 1), dilation=(1, 1), ceil_mode=False)
      (conv4): Conv2d(256, 512, kernel_size=(3, 3), stride=(1, 1), padding=(1, 1))
      (batchnorm4): BatchNorm2d(512, eps=1e-05, momentum=0.1, affine=True)
      (relu4): ReLU(inplace)
      (conv5): Conv2d(512, 512, kernel_size=(3, 3), stride=(1, 1), padding=(1, 1))
      (relu5): ReLU(inplace)
      (pooling3): MaxPool2d(kernel_size=(2, 2), stride=(2, 1), padding=(0, 1), dilation=(1, 1), ceil_mode=False)
      (conv6): Conv2d(512, 512, kernel_size=(2, 2), stride=(1, 1))
      (batchnorm6): BatchNorm2d(512, eps=1e-05, momentum=0.1, affine=True)
      (relu6): ReLU(inplace)
    )
    (rnn): Sequential(
      (0): BidirectionalLSTM(
        (rnn): LSTM(512, 256, bidirectional=True)
        (embedding): Linear(in_features=512, out_features=256, bias=True)
      )
      (1): BidirectionalLSTM(
        (rnn): LSTM(256, 256, bidirectional=True)
        (embedding): Linear(in_features=512, out_features=97, bias=True)
      )
    )
  )
)
Starting training...
[0/100][10/261] Loss: 156.755614
[0/100][20/261] Loss: 76.791776
[0/100][30/261] Loss: 79.065723
[0/100][40/261] Loss: 77.550772
[0/100][50/261] Loss: 71.732785
[0/100][60/261] Loss: 69.391193
[0/100][70/261] Loss: 73.170298
[0/100][80/261] Loss: 73.449858
[0/100][90/261] Loss: 69.208682
[0/100][100/261] Loss: 76.092357
…
