…
0.5, crnn='experiments/expr_ICFHR_19Mar_extend/netCRNN_10_2982.pth', cuda=True, displayInterval=120, experiment='experiments/expr_ICFHR_21Mar_russell', imgH=80, imgW=240, keep_ratio=True, lr=5e-05, n_test_disp=10, ngpu=1, nh=256, niter=200, random_sample=False, saveEpoch=10, trainroot='/deep_data/nephi/lmdb_ICFHR/general_data', valEpoch=5, valroot='/deep_data/nephi/lmdb_ICFHR/specific_data', workers=10)
Random Seed:  3884
loading pretrained model from experiments/expr_ICFHR_19Mar_extend/netCRNN_10_2982.pth
Your neural network: DataParallel(
  (module): CRNN(
    (cnn): Sequential(
      (conv0): Conv2d(1, 64, kernel_size=(3, 3), stride=(1, 1), padding=(1, 1))
      (relu0): ReLU(inplace)
      (pooling0): MaxPool2d(kernel_size=(2, 2), stride=(2, 2), dilation=(1, 1), ceil_mode=False)
      (conv1): Conv2d(64, 128, kernel_size=(3, 3), stride=(1, 1), padding=(1, 1))
      (relu1): ReLU(inplace)
      (pooling1): MaxPool2d(kernel_size=(2, 2), stride=(2, 2), dilation=(1, 1), ceil_mode=False)
      (conv2): Conv2d(128, 256, kernel_size=(3, 3), stride=(1, 1), padding=(1, 1))
      (batchnorm2): BatchNorm2d(256, eps=1e-05, momentum=0.1, affine=True)
      (relu2): ReLU(inplace)
      (conv3): Conv2d(256, 256, kernel_size=(3, 3), stride=(1, 1), padding=(1, 1))
      (relu3): ReLU(inplace)
      (pooling2): MaxPool2d(kernel_size=(2, 2), stride=(2, 1), padding=(0, 1), dilation=(1, 1), ceil_mode=False)
      (conv4): Conv2d(256, 512, kernel_size=(3, 3), stride=(1, 1), padding=(1, 1))
      (batchnorm4): BatchNorm2d(512, eps=1e-05, momentum=0.1, affine=True)
      (relu4): ReLU(inplace)
      (conv5): Conv2d(512, 512, kernel_size=(3, 3), stride=(1, 1), padding=(1, 1))
      (relu5): ReLU(inplace)
      (pooling3): MaxPool2d(kernel_size=(2, 2), stride=(2, 1), padding=(0, 1), dilation=(1, 1), ceil_mode=False)
      (conv6): Conv2d(512, 512, kernel_size=(2, 2), stride=(1, 1))
      (batchnorm6): BatchNorm2d(512, eps=1e-05, momentum=0.1, affine=True)
      (relu6): ReLU(inplace)
    )
    (rnn): Sequential(
      (0): BidirectionalLSTM(
        (rnn): LSTM(512, 256, bidirectional=True)
        (embedding): Linear(in_features=512, out_features=256, bias=True)
      )
      (1): BidirectionalLSTM(
        (rnn): LSTM(256, 256, bidirectional=True)
        (embedding): Linear(in_features=512, out_features=233, bias=True)
      )
    )
  )
)
Starting training...
[0/200][120/2982] Loss: 4.862459
[0/200][240/2982] Loss: 3.948460
[0/200][360/2982] Loss: 3.086681
[0/200][480/2982] Loss: 2.116650
[0/200][600/2982] Loss: 3.006575
[0/200][720/2982] Loss: 2.260480
[0/200][840/2982] Loss: 2.942326
[0/200][960/2982] Loss: 2.663734
[0/200][1080/2982] Loss: 2.734953
[0/200][1200/2982] Loss: 2.562751
…
