…
, imgH=60, imgW=240, keep_ratio=True, lr=0.0001, n_test_disp=10, ngpu=1, nh=256, niter=200, random_sample=False, saveEpoch=5, test_file='test_file', test_icfhr=False, trainroot='/deep_data/nephi/data/lmdb_read_new/train', valEpoch=5, valroot='/deep_data/nephi/data/lmdb_read_new/val', workers=10)
Random Seed:  2204
This is the alphabet:
40FreihatnūfsRb¬:vdgüomw.DlENBcLkPzAOuVȳGSCIH19Tj62,W5KōZpäÿMJ38x()āÖqß̄—öU7̈ē-Q<>/¾yY+ 
loading pretrained model from experiments/expr_READ_30Mar_revisit/netCRNN_5_4184.pth
Your neural network: DataParallel(
  (module): CRNN(
    (cnn): Sequential(
      (conv0): Conv2d(1, 64, kernel_size=(3, 3), stride=(1, 1), padding=(1, 1))
      (relu0): ReLU(inplace)
      (pooling0): MaxPool2d(kernel_size=(2, 2), stride=(2, 2), dilation=(1, 1), ceil_mode=False)
      (conv1): Conv2d(64, 128, kernel_size=(3, 3), stride=(1, 1), padding=(1, 1))
      (relu1): ReLU(inplace)
      (pooling1): MaxPool2d(kernel_size=(2, 2), stride=(2, 2), dilation=(1, 1), ceil_mode=False)
      (conv2): Conv2d(128, 256, kernel_size=(3, 3), stride=(1, 1), padding=(1, 1))
      (batchnorm2): BatchNorm2d(256, eps=1e-05, momentum=0.1, affine=True)
      (relu2): ReLU(inplace)
      (conv3): Conv2d(256, 256, kernel_size=(3, 3), stride=(1, 1), padding=(1, 1))
      (relu3): ReLU(inplace)
      (pooling2): MaxPool2d(kernel_size=(2, 2), stride=(2, 1), padding=(0, 1), dilation=(1, 1), ceil_mode=False)
      (conv4): Conv2d(256, 512, kernel_size=(3, 3), stride=(1, 1), padding=(1, 1))
      (batchnorm4): BatchNorm2d(512, eps=1e-05, momentum=0.1, affine=True)
      (relu4): ReLU(inplace)
      (conv5): Conv2d(512, 512, kernel_size=(3, 3), stride=(1, 1), padding=(1, 1))
      (relu5): ReLU(inplace)
      (pooling3): MaxPool2d(kernel_size=(2, 2), stride=(2, 1), padding=(0, 1), dilation=(1, 1), ceil_mode=False)
      (conv6): Conv2d(512, 512, kernel_size=(2, 2), stride=(1, 1))
      (batchnorm6): BatchNorm2d(512, eps=1e-05, momentum=0.1, affine=True)
      (relu6): ReLU(inplace)
    )
    (rnn): Sequential(
      (0): BidirectionalLSTM(
        (rnn): LSTM(512, 256, bidirectional=True)
        (embedding): Linear(in_features=512, out_features=256, bias=True)
      )
      (1): BidirectionalLSTM(
        (rnn): LSTM(256, 256, bidirectional=True)
        (embedding): Linear(in_features=512, out_features=89, bias=True)
      )
    )
  )
)
Starting training...
[0/200][120/4184] Loss: 8.239167
[0/200][240/4184] Loss: 5.806197
[0/200][360/4184] Loss: 5.750473
[0/200][480/4184] Loss: 5.613049
[0/200][600/4184] Loss: 5.001962
[0/200][720/4184] Loss: 7.443362
[0/200][840/4184] Loss: 6.850029
[0/200][960/4184] Loss: 6.084599
[0/200][1080/4184] Loss: 5.374811
[0/200][1200/4184] Loss: 5.512505
…
